…
Take Size:  36
Count -> Train_data: 29
Count -> Test_data: 8
<PaddedBatchDataset shapes: ((None, None), (None,)), types: (tf.int64, tf.int64)>
<PaddedBatchDataset shapes: ((None, None), (None,)), types: (tf.int64, tf.int64)>
Model: "sequential"
_________________________________________________________________
Layer (type)                 Output Shape              Param #   
=================================================================
embedding (Embedding)        (None, None, 8)           1574312   
_________________________________________________________________
bidirectional (Bidirectional (None, 24)                2016      
_________________________________________________________________
dropout (Dropout)            (None, 24)                0         
_________________________________________________________________
dense (Dense)                (None, 8)                 200       
_________________________________________________________________
dropout_1 (Dropout)          (None, 8)                 0         
_________________________________________________________________
dense_1 (Dense)              (None, 8)                 72        
_________________________________________________________________
dropout_2 (Dropout)          (None, 8)                 0         
_________________________________________________________________
dense_2 (Dense)              (None, 1)                 9         
=================================================================
Total params: 1,576,609
Trainable params: 1,576,609
Non-trainable params: 0
_________________________________________________________________
None
Epoch 1/5
      1/Unknown - 895s 895s/step - loss: 0.6436 - accuracy: 0.6000      2/Unknown - 1517s 759s/step
…
