…
Take Size:  38
Count -> Train_data: 74
Count -> Test_data: 74
<PaddedBatchDataset shapes: ((None, None), (None,)), types: (tf.int64, tf.int64)>
<PaddedBatchDataset shapes: ((None, None), (None,)), types: (tf.int64, tf.int64)>
Model: "sequential"
_________________________________________________________________
Layer (type)                 Output Shape              Param #   
=================================================================
embedding (Embedding)        (None, None, 12)          6218484   
_________________________________________________________________
bidirectional (Bidirectional (None, 24)                2400      
_________________________________________________________________
dropout (Dropout)            (None, 24)                0         
_________________________________________________________________
dense (Dense)                (None, 8)                 200       
_________________________________________________________________
dropout_1 (Dropout)          (None, 8)                 0         
_________________________________________________________________
dense_1 (Dense)              (None, 8)                 72        
_________________________________________________________________
dropout_2 (Dropout)          (None, 8)                 0         
_________________________________________________________________
dense_2 (Dense)              (None, 1)                 9         
=================================================================
Total params: 6,221,165
Trainable params: 6,221,165
Non-trainable params: 0
_________________________________________________________________
None
Epoch 1/5
      1/Unknown - 14463s 14463s/step
Epoch 00001: saving model to output/2020_03_15_14-45-25/training/20200315-144525
      1/Unknown - 14464s 14464s/stepTraceback (most recent call last):
…
