…
Take Size:  38
Count -> Train_data: 74
Count -> Test_data: 74
<PaddedBatchDataset shapes: ((None, None), (None,)), types: (tf.int64, tf.int64)>
<PaddedBatchDataset shapes: ((None, None), (None,)), types: (tf.int64, tf.int64)>
Model: "sequential"
_________________________________________________________________
Layer (type)                 Output Shape              Param #   
=================================================================
embedding (Embedding)        (None, None, 8)           1706368   
_________________________________________________________________
lstm (LSTM)                  (None, 12)                1008      
_________________________________________________________________
dropout (Dropout)            (None, 12)                0         
_________________________________________________________________
dense (Dense)                (None, 8)                 104       
_________________________________________________________________
dropout_1 (Dropout)          (None, 8)                 0         
_________________________________________________________________
dense_1 (Dense)              (None, 8)                 72        
_________________________________________________________________
dropout_2 (Dropout)          (None, 8)                 0         
_________________________________________________________________
dense_2 (Dense)              (None, 1)                 9         
=================================================================
Total params: 1,707,561
Trainable params: 1,707,561
Non-trainable params: 0
_________________________________________________________________
None
Epoch 1/5
      1/Unknown - 478s 478s/step - loss: 0.5114 - accuracy: 0.8000      2/Unknown - 909s 455s/step 
…
