…
Take Size:  36
Count -> Train_data: 29
Count -> Test_data: 8
<PaddedBatchDataset shapes: ((None, None), (None,)), types: (tf.int64, tf.int64)>
<PaddedBatchDataset shapes: ((None, None), (None,)), types: (tf.int64, tf.int64)>
Model: "sequential"
_________________________________________________________________
Layer (type)                 Output Shape              Param #   
=================================================================
embedding (Embedding)        (None, None, 8)           1574312   
_________________________________________________________________
bidirectional (Bidirectional (None, 2)                 80        
_________________________________________________________________
dropout (Dropout)            (None, 2)                 0         
_________________________________________________________________
dense (Dense)                (None, 8)                 24        
_________________________________________________________________
dropout_1 (Dropout)          (None, 8)                 0         
_________________________________________________________________
dense_1 (Dense)              (None, 8)                 72        
_________________________________________________________________
dropout_2 (Dropout)          (None, 8)                 0         
_________________________________________________________________
dense_2 (Dense)              (None, 1)                 9         
=================================================================
Total params: 1,574,497
Trainable params: 1,574,497
Non-trainable params: 0
_________________________________________________________________
None
Epoch 1/5
      1/Unknown - 292s 292s/step - loss: 0.5867 - accuracy: 0.8000      2/Unknown - 847s 423s/step 
…
