…
Count -> data_set:  74
Batch Size:  5
Take Size:  38
<PaddedBatchDataset shapes: ((None, 576000), (None,)), types: (tf.int64, tf.int64)>
<PaddedBatchDataset shapes: ((None, 576000), (None,)), types: (tf.int64, tf.int64)>
Model: "sequential"
_________________________________________________________________
Layer (type)                 Output Shape              Param #   
=================================================================
embedding (Embedding)        (None, None, 8)           1684656   
_________________________________________________________________
lstm (LSTM)                  (None, 24)                3168      
_________________________________________________________________
dropout (Dropout)            (None, 24)                0         
_________________________________________________________________
dense (Dense)                (None, 8)                 200       
_________________________________________________________________
dropout_1 (Dropout)          (None, 8)                 0         
_________________________________________________________________
dense_1 (Dense)              (None, 1)                 9         
=================================================================
Total params: 1,688,033
Trainable params: 1,688,033
Non-trainable params: 0
_________________________________________________________________
None
Epoch 1/10
